…
      "000000369771.jpg",
      "000000035963.jpg",
      "000000289516.jpg",
      "000000334309.jpg",
      "000000452084.jpg",
      "000000301718.jpg",
      "000000429598.jpg",
      "000000165257.jpg",
      "000000093437.jpg",
      "000000413552.jpg",
      "000000062025.jpg",
      "000000017379.jpg",
      "000000176778.jpg",
      "000000104572.jpg",
      "000000090108.jpg",
      "000000157124.jpg",
      "000000089556.jpg",
      "000000266206.jpg",
      "000000086220.jpg",
      "000000508602.jpg"
    ]
  },
  "evaluation_config": {
    "model_path": "ImprovedBLIP3oCLIPDiTModel(\n  (input_proj): Linear(in_features=1024, out_features=768, bias=True)\n  (timestep_embedder): TimestepEmbedder(\n    (mlp): Sequential(\n      (0): Linear(in_features=256, out_features=768, bias=True)\n      (1): SiLU()\n      (2): Linear(in_features=768, out_features=768, bias=True)\n    )\n  )\n  (eva_adapter): EVACLIPAdapter(\n    (adaptation_layers): Sequential(\n      (0): Linear(in_features=4096, out_features=3541, bias=True)\n      (1): LayerNorm((np.int64(3541),), eps=1e-05, elementwise_affine=True)\n      (2): GELU(approximate='none')\n      (3): Dropout(p=0.1, inplace=False)\n      (4): Linear(in_features=3541, out_features=2986, bias=True)\n      (5): LayerNorm((np.int64(2986),), eps=1e-05, elementwise_affine=True)\n      (6): GELU(approximate='none')\n      (7): Dropout(p=0.1, inplace=False)\n      (8): Linear(in_features=2986, out_features=2432, bias=True)\n      (9): LayerNorm((np.int64(2432),), eps=1e-05, elementwise_affine=True)\n      (10): GELU(approximate='none')\n      (11): Dropout(p=0.1, inplace=False)\n      (12): Linear(in_features=2432, out_features=1877, bias=True)\n      (13): LayerNorm((np.int64(1877),), eps=1e-05, elementwise_affine=True)\n      (14): GELU(approximate='none')\n      (15): Dropout(p=0.1, inplace=False)\n      (16): Linear(in_features=1877, out_features=1322, bias=True)\n      (17): LayerNorm((np.int64(1322),), eps=1e-05, elementwise_affine=True)\n      (18): GELU(approximate='none')\n      (19): Dropout(p=0.1, inplace=False)\n      (20): Linear(in_features=1322, out_features=768, bias=True)\n      (21): LayerNorm((np.int64(768),), eps=1e-05, elementwise_affine=True)\n      (22): GELU(approximate='none')\n      (23): Dropout(p=0.1, inplace=False)\n    )\n    (residual_proj): Linear(in_features=4096, out_features=768, bias=True)\n    (gate): Sequential(\n      (0): Linear(in_features=768, out_features=768, bias=True)\n      (1): Sigmoid()\n    )\n  )\n  (blocks): ModuleList(\n    (0-11): 12 x StableDiTBlock3D(\n      (self_attn): StableAttention3D(\n        (q_proj): Linear(in_features=768, out_features=768, bias=False)\n        (k_proj): Linear(in_features=768, out_features=256, bias=False)\n        (v_proj): Linear(in_features=768, out_features=256, bias=False)\n        (o_proj): Linear(in_features=768, out_features=768, bias=False)\n        (rotary_emb): Rotary3DEmbedding()\n        (dropout): Dropout(p=0.0, inplace=False)\n      )\n      (cross_attn): StableAttention3D(\n        (q_proj): Linear(in_features=768, out_features=768, bias=False)\n        (k_proj): Linear(in_features=768, out_features=256, bias=False)\n        (v_proj): Linear(in_features=768, out_features=256, bias=False)\n        (o_proj): Linear(in_features=768, out_features=768, bias=False)\n        (rotary_emb): Rotary3DEmbedding()\n        (dropout): Dropout(p=0.0, inplace=False)\n      )\n      (mlp): StableSwiGLUMLP(\n        (gate_proj): Linear(in_features=768, out_features=2048, bias=False)\n        (up_proj): Linear(in_features=768, out_features=2048, bias=False)\n        (down_proj): Linear(in_features=2048, out_features=768, bias=False)\n        (act_fn): SiLU()\n        (dropout): Dropout(p=0.0, inplace=False)\n      )\n      (self_attn_pre_norm): RMSNorm()\n      (self_attn_post_norm): RMSNorm()\n      (self_attn_ada_ln_pre): AdaLN(\n        (norm): RMSNorm()\n        (adaLN_modulation): Sequential(\n          (0): SiLU()\n          (1): Linear(in_features=768, out_features=1536, bias=True)\n        )\n      )\n      (self_attn_ada_ln_post): AdaLN(\n        (norm): RMSNorm()\n        (adaLN_modulation): Sequential(\n          (0): SiLU()\n          (1): Linear(in_features=768, out_features=1536, bias=True)\n        )\n      )\n      (cross_attn_pre_norm): RMSNorm()\n      (cross_attn_post_norm): RMSNorm()\n      (cross_attn_ada_ln_pre): AdaLN(\n        (norm): RMSNorm()\n        (adaLN_modulation): Sequential(\n          (0): SiLU()\n          (1): Linear(in_features=768, out_features=1536, bias=True)\n        )\n      )\n      (cross_attn_ada_ln_post): AdaLN(\n        (norm): RMSNorm()\n        (adaLN_modulation): Sequential(\n          (0): SiLU()\n          (1): Linear(in_features=768, out_features=1536, bias=True)\n        )\n      )\n      (mlp_pre_norm): RMSNorm()\n      (mlp_post_norm): RMSNorm()\n      (mlp_ada_ln_pre): AdaLN(\n        (norm): RMSNorm()\n        (adaLN_modulation): Sequential(\n          (0): SiLU()\n          (1): Linear(in_features=768, out_features=1536, bias=True)\n        )\n      )\n      (mlp_ada_ln_post): AdaLN(\n        (norm): RMSNorm()\n        (adaLN_modulation): Sequential(\n          (0): SiLU()\n          (1): Linear(in_features=768, out_features=1536, bias=True)\n        )\n      )\n    )\n  )\n  (output_pre_norm): RMSNorm()\n  (output_adaln_pre): AdaLN(\n    (norm): RMSNorm()\n    (adaLN_modulation): Sequential(\n      (0): SiLU()\n      (1): Linear(in_features=768, out_features=1536, bias=True)\n    )\n  )\n  (output_proj): Linear(in_features=768, out_features=1024, bias=True)\n)",
    "coco_root": "./data/coco",
    "max_samples": 1000,
    "batch_size": 8,
    "num_inference_steps": 50,
    "use_heun": true
  }
}